…
      hyper_params = bye_cycle.DegredationModelHyperParams(reg_strength=0)

      model = bye_cycle.DegredationModel(hyper_params)
      model.compile()
      model.summary()

   .. container:: output stream stdout

      ::

         Model: "model"
         _________________________________________________________________
          Layer (type)                Output Shape              Param #   
         =================================================================
          input_1 (InputLayer)        [(None, 50, 100, 2)]      0         
                                                                          
          time_distributed (TimeDistr  (None, 50, 1, 32)        6432      
          ibuted)                                                         
                                                                          
          time_distributed_1 (TimeDis  (None, 50, 1, 32)        0         
          tributed)                                                       
                                                                          
          time_distributed_2 (TimeDis  (None, 50, 32)           0         
          tributed)                                                       
                                                                          
          bidirectional (Bidirectiona  (None, 50, 64)           16640     
          l)                                                              
                                                                          
          bidirectional_1 (Bidirectio  (None, 64)               24832     
          nal)                                                            
                                                                          
          dense (Dense)               (None, 32)                2080      
                                                                          
          layer_normalization (LayerN  (None, 32)               64        
          ormalization)                                                   
                                                                          
          dropout_1 (Dropout)         (None, 32)                0         
                                                                          
          dense_1 (Dense)             (None, 16)                528       
                                                                          
          layer_normalization_1 (Laye  (None, 16)               32        
          rNormalization)                                                 
                                                                          
          dropout_2 (Dropout)         (None, 16)                0         
                                                                          
          dense_2 (Dense)             (None, 2)                 34        
                                                                          
         =================================================================
         Total params: 50,642
         Trainable params: 50,642
         Non-trainable params: 0
         _________________________________________________________________

.. container:: cell code
   :name: e503dda7

   .. code:: python

      model.fit(scaled_X_train_time_series, scaled_slopes_train,
…
